models/baseline.pth (torch_old, 810499 bytes, 10 tensors)

conv1.weight f4 [6, 3, 3, 3]
00000000: ec96 2d3e 72b5 6dbe 4c74 bebe 9091 c33e
00000010: dd30 91be a5ca dbbe f982 71be 6789 e8be
00000020: 3dce 1ebd 2580 babd db5b 17be ec4c 89be
00000030: c233 ea3e 7d1b edbd 7ee4 a6be 33e6 9fbe
00000040: 8890 eebe e178 2abe 7c8b 91bd fd5a 14be
00000050: 9056 4fbe 0884 c43e b46d 2a3e 0175 f9bd
00000060: 0ec7 36be 7cc3 44be c048 40be f5dd 433c
00000070: 961d 943e d3c4 be3e 8781 c13d a66c 8c3e
00000080: e459 9c3e d2d7 df3d b9d4 d03e 74d3 853e
00000090: f039 97be 6aec 09bd 5da8 1dbe b071 4fbe
000000a0: 6229 80be f1d0 e23d a6a4 9ebd c707 613d
000000b0: e23f 4ebe 3280 b4bd da91 88be 1853 a3be
000000c0: 1d36 6bbc fa31 30be e81d 48be 63b8 5bbd
000000d0: b903 80bd 387f 42be 1e7f db3c bd79 17be
000000e0: 80cc f53d 9667 743e c8e2 c83d a021 a13e
000000f0: f524 da3d 2855 e23d 7a67 623e fc0b eabe
00000100: 4c58 1ebf ad11 fbbd c576 6bbe 2a83 0ebf
00000110: fe47 9b3d fdaa b7be 1497 d3bd ad11 383e
00000120: db9c a6be c16b fdbe b468 c4be b7da 743d
00000130: 6b3c a2bd 2fe3 933e 8669 14bd 38c6 be3e
00000140: b93b d43e 971e e1be 4610 1abe e6c2 953d
00000150: 0ba1 1fbe 27f4 713e 0160 2bbe 643e 01be
00000160: 12a5 fabe ea6b 2bbe 504d c43d 4bf4 e73e
00000170: 9afa b53e 1d55 373e 1c82 ed3e afba 193e
00000180: 1cf6 1b3e 04e3 e1bd 728a b13b 054e 7abe
00000190: d145 b13d 7dd6 06be b1ef b0be e6b9 253e
000001a0: 7c55 86be cba1 2fbe 838b 0cbf 96c1 b6be
000001b0: e06e 093e d490 273e 58b1 e1ba 2153 753e
000001c0: 916b 383e 0b62 703e 4a0e 4f3e 484d f63c
000001d0: ba32 da3d 2d7d 59be 4386 f1bd 7766 52bd
000001e0: 28be 70be 9585 bfbe 9681 aebe 4ccc 4abe
000001f0: 9299 07bd 1fb0 5fbe 0a76 81bc d5a7 6fbe
00000200: cf19 48bd 06fb e83a a677 42bd 08d7 713d
00000210: b174 eebd 7ec8 71bd c96a 18be 184e b53c
00000220: d410 8abe 17e2 ab3c 2479 6abe 724d b3bd
00000230: 79eb 62be 2593 3dbd 20aa aabc 511d 90be
00000240: b8a4 9f3d 388f 54be ddca 81bd 589b a9be
00000250: 0553 f5bd 463a 54be 3669 53be e3c5 8ebe
00000260: 6728 c0bd d66d 923e f6a9 cc3d d099 293e
00000270: a38d 3ebe e058 53bd 377f 053e 691c 8a3e
00000280: 06ff a23c 5a38 053d
0.16952103 -0.23213747 -0.37198102 0.38196993 -0.28357592 -0.42928043 -0.23585118 -0.4541733
-0.038770903 -0.09106473 -0.14781134 -0.268165 0.45742613 -0.115775086 -0.325962 -0.31230316
-0.46594644 -0.16647674 -0.07106683 -0.14487834 -0.20247865 0.38381982 0.16643411 -0.1218052
-0.17849371 -0.19215196 -0.18777752 0.011954774 0.28928822 0.3725954 0.094485335 0.27426642
0.3053733 0.10929836 0.40787295 0.26137888 -0.2953639 -0.033672728 -0.15396257 -0.20258212
-0.25031573 0.11075009 -0.07746248 0.054939058 -0.20141557 -0.08813514 -0.26673776 -0.31899333
-0.014356163 -0.17206565 -0.19542658 -0.05364264 -0.0625071 -0.18993843 0.026794013 -0.14792533
0.12001896 0.2386764 0.0980888 0.31470966 0.1065158 0.110513985 0.22109786 -0.45712268
-0.6185348 -0.12259231 -0.22994526 -0.5566889 0.07582091 -0.3587264 -0.1033155 0.17975493
-0.32541546 -0.49496272 -0.38361132 0.059778895 -0.0792168 0.28884265 -0.036233447 0.37260604
0.41451815 -0.4396865 -0.1504527 0.073125646 -0.15588777 0.23628293 -0.16735841 -0.12621456
-0.48954064 -0.16740385 0.09585059 0.45303568 0.35542756 0.17903562 0.46388328 0.1501262
0.15230602 -0.11029628 0.0054181153 -0.24443825 0.086558945 -0.13167758 -0.3455787 0.16184196
-0.26237094 -0.17151563 -0.5490038 -0.3569457 0.13421202 0.16363841 -0.001721899 0.23957492
0.18009783 0.234749 0.20220295 0.030066147 0.106542066 -0.21239157 -0.117931865 -0.05136725
-0.23510039 -0.37406603 -0.3408324 -0.19804496 -0.03310544 -0.21844529 -0.015803356 -0.23403867
-0.048852738 0.0017775006 -0.047477387 0.05904296 -0.11643351 -0.059029095 -0.14884485 0.022131965
-0.26965964 0.020981831 -0.22897774 -0.08755006 -0.22160138 -0.046282906 -0.020833075 -0.28147367
0.077950895 -0.20757759 -0.06337521 -0.3312633 -0.11978725 -0.20725355 -0.20645604 -0.2788535
-0.09382706 0.28599423 0.09993355 0.16562581 -0.18608718 -0.05159843 0.1303681 0.269748
0.019896995 0.032524444

conv1.bias f4 [6]
00000000: e7f6 dfbe 3cd8 413e c15d 72be 4daa ebbd
00000010: 5c2a 64bf 2309 a2be
-0.4374306 0.18930143 -0.23668577 -0.11507092 -0.89127135 -0.31647596

conv2.weight f4 [12, 6, 3, 3]
00000000: 15c3 0cbe c422 82be e598 25be 52f5 7abe
00000010: 4431 a0bc c9fd 2fbe b7a1 acbd bde7 4a3e
00000020: 0622 043e 2289 eebe 05d0 3bbf 6210 f3be
00000030: a6b3 58be 9328 4ebf 1a4c 0fbf f711 10bf
00000040: 2bea 95bf e07d 18bf 3ced 963d 26b9 d9bd
00000050: 0dad 84be 5fb1 5ebe f25f 1dbe f61e 2abf
00000060: 2c8e 9abe c5b7 0cbf 1048 9fbe e74f 0cbf
00000070: 7913 0f3d a435 77bf 18ea 12bf f212 d3be
00000080: 0974 b3bc ef24 3abf 3bef b2bd 6491 8fbe
00000090: cd7b e23d 1f21 cbbd 804b a5be 43e0 3cbe
000000a0: 1a5a 73be 952b e0be 414b 72be 77f4 c2bd
000000b0: 59ae ecbe ec8d 0d3e 5700 aa3d 2f77 e43d
000000c0: 9866 683c 475b aabc 20ff ba3d a08c a9bd
000000d0: 4697 943d 15b4 1e3e 8a0d 1cbf 84ea 49be
000000e0: 29b4 ee3e feba 10bf 492c 3fbf 21c7 753e
000000f0: e6a3 28be 96a7 0dbe 5b5e a83e 7b74 8ebc
00000100: 46ba 013e e3a6 133d 93ed 2e3e defa d2bd
00000110: fecd eabc 3ae6 073e f9fa 223e 38c9 cf3d
00000120: aa02 113e 2fd8 19be da00 473e fa8f 6c3d
00000130: 9233 02bf 809a 15bd 1d5e 7fbb 7ca5 d6be
00000140: b37b cbbd 5829 cdbe a20d 46bf e682 09be
00000150: f33f 58be d6db e1be 2a93 b3be 0c1e cfbe
00000160: 2fba 7dbe a7dc d9be 4303 16be b544 d3be
00000170: 9543 9c3e 45ea 86be 3d63 fbbe 13ef 0abe
00000180: 94bf 9fbd af56 90be 48b7 b6bc 22ac 7fbe
00000190: 78b5 07be 6751 2b3e 5b04 e43c 0e38 7abe
000001a0: b57b 333e d991 45be 0ec5 37bf 97d3 8abe
000001b0: 6d0e e5bd ffa2 dbbd 6ca1 c2be 37d3 b3be
000001c0: 8020 a4bd 8edc 8dbc c018 3a3e ff54 30be
000001d0: 1179 413e 8d31 c5be d03c 9dbe 198d e7be
000001e0: 0581 53bc dc88 b6be 7d04 f2be 305a b3be
000001f0: 061a 00bf e9dc cbbe 6d11 a5be b86f b43e
00000200: cb52 6abe 7bab 813d 3c06 b7be f13c 0ebf
00000210: beea c1be 5c63 d7be dd36 b9bd 7482 cb3e
00000220: 068b 8d3d e7bd efbd 29dc a9bb 4aaa 893e
00000230: fa8d 5bbe 7d5e 47be 7a59 fabc 8095 0dbe
00000240: 51b4 aabe 8cd0 67bd 9ede 14be 2404 f0bd
00000250: 4f0c ed3b 4d92 81be 70c1 72bd 0ed4 9fbe
00000260: 3650 31be 5ec0 073e d81c 00bb 62e1 f13c
00000270: 49f8 94be 42ef 5ebe ad95 d83e 60d9 15be
00000280: 8cf2 713e 0e1e 5b3e b602 48be 5b04 003e
00000290: d81c 9b3e d242 c0be c6f3 4d3e 2fc3 ec3e
000002a0: add8 0ebf fed4 113e 2463 a33a 89d2 e5bc
000002b0: 1823 9bbe 9ff1 73be c0ba 723d e077 62bd
000002c0: 1f58 91bd 8235 34bd 5dce cdbe 3779 2bbe
000002d0: 46ea d03e 69ce 32be ca8a 683c 7abb 693e
000002e0: 6654 bfbe 9bf3 c43e f990 05bf b365 11bf
000002f0: a107 963e 80f3 dcbe ce68 61bc 6e67 ae3d
00000300: e281 3abe 6580 fdbe 3067 0a3e a71b 6cbe
00000310: 4694 cdbe d38f 2f3b ce08 d73c f0e7 9ebd
00000320: 19e6 613e 8674 8fbe 9e64 89bd e0a4 843d
00000330: c697 51be 8888 05bc 37fc 803d c0d8 593c
00000340: ac30 00be 0c70 f43e 260c 83be af69 373d
00000350: c73d a93e 4762 083c dcf2 10be 6404 b93d
00000360: 1728 dcbe 244f d93e bc3a 503e a703 e8be
00000370: 67d3 ccbd c5b7 9bbe f475 f0bd a036 7f3d
00000380: aca0 96be 5351 cf3b 1f00 4fbe 3e72 cabd
00000390: 938a 37bd 4c75 88be ff96 20bd c111 90be
000003a0: 006a d0be 675f c3be 7dce 33be 3e06 c1bb
000003b0: 4e56 373e eaf2 b8be d1b6 47be 1371 bebe
000003c0: 7322 67bd c34c 13bf fc01 1ebe 1561 82be
000003d0: dce9 643e 56cf ad3e 8b53 e8be f786 b1bd
000003e0: 104a 003e f18d 5bbe 3548 5bbe 4486 6f3e
000003f0: de08 093d 9457 26be 576d 87be 9d34 bf3c
-0.13746293 -0.2541715 -0.16171606 -0.24507645 -0.019554742 -0.17186655 -0.08429282 0.19814964
0.12903604 -0.46589 -0.7336429 -0.47473437 -0.2116228 -0.8053066 -0.55975497 -0.5627741
-1.1712087 -0.5956707 0.073694676 -0.106310174 -0.25913277 -0.21747349 -0.15368631 -0.6645349
-0.30186594 -0.5496791 -0.31109667 -0.5480942 0.03493068 -0.96566224 -0.5738845 -0.41225392
-0.021905916 -0.72712606 -0.08737036 -0.28040612 0.110587694 -0.09918427 -0.32284164 -0.18444924
-0.2376484 -0.4378325 -0.2366152 -0.09519284 -0.46226767 0.1382367 0.08300846 0.11155545
0.0141846165 -0.020795478 0.091306925 -0.08278775 0.072554156 0.15498383 -0.6095816 -0.19718367
0.46621826 -0.5653533 -0.7467695 0.24001743 -0.16468772 -0.1383346 0.32884488 -0.017389527
0.12668714 0.036047827 0.17082815 -0.10301755 -0.028662678 0.13271418 0.15916051 0.10145801
0.14161173 -0.15023874 0.19433919 0.057754494 -0.5085994 -0.036524296 -0.0038966008 -0.4192313
-0.09935703 -0.40070605 -0.7736455 -0.1342884 -0.21118145 -0.44113034 -0.35073215 -0.4045261
-0.24778055 -0.42551157 -0.14649682 -0.41263357 0.3052031 -0.26350608 -0.4909915 -0.13567762
-0.078002125 -0.28191134 -0.022304192 -0.24968007 -0.13252819 0.16730271 0.027834108 -0.24435446
0.17527659 -0.19293918 -0.71785057 -0.27114555 -0.11184392 -0.107244484 -0.3801378 -0.35122082
-0.080140114 -0.017317083 0.18173504 -0.17219923 0.1889384 -0.38514367 -0.3071046 -0.45224836
-0.012909179 -0.3565129 -0.4726905 -0.35029745 -0.5003971 -0.3981698 -0.32239857 0.35241485
-0.22883146 0.063315354 -0.35746944 -0.5556174 -0.37874407 -0.42067993 -0.090436675 0.39747965
0.06911282 -0.11706143 -0.005183716 0.26887733 -0.21440879 -0.19469638 -0.030560244 -0.13826561
-0.33340696 -0.05659537 -0.14538047 -0.1171954 0.0072341333 -0.2530693 -0.059266508 -0.31216472
-0.17315754 0.13256976 -0.0019548442 0.029526416 -0.29095677 -0.21770957 0.42301694 -0.14633703
0.2362768 0.21398184 -0.19532284 0.12501661 0.30295444 -0.3755098 0.20112523 0.46242663
-0.5579937 0.14241406 0.0012465459 -0.028054493 -0.30300212 -0.2382264 0.05926013 -0.055290103
-0.07096886 -0.04399634 -0.40196505 -0.16745459 0.40803736 -0.17461552 0.014193246 0.22825423
-0.37369078 0.38467106 -0.52174336 -0.56795806 0.29302695 -0.43154526 -0.013757898 0.085158214
-0.18213609 -0.4951202 0.13515925 -0.23057424 -0.40152186 0.0026788607 0.026249316 -0.07759082
0.22060432 -0.28018588 -0.06708644 0.0647676 -0.20468053 -0.008150227 0.06298106 0.013296306
-0.12518567 0.47741735 -0.25595206 0.044778522 0.33054945 0.008324212 -0.14155143 0.090340406
-0.42999336 0.42443192 0.20334905 -0.45315287 -0.10001259 -0.30413643 -0.11741248 0.062307954
-0.29419458 0.0063268333 -0.2021489 -0.09885071 -0.04480989 -0.2665199 -0.0392065 -0.28138545
-0.40705872 -0.38158724 -0.17559238 -0.0058906367 0.17904016 -0.3612283 -0.19503333 -0.37195644
-0.056429338 -0.57539004 -0.15430444 -0.25464693 0.22354835 0.33947247 -0.45376238 -0.086683206
0.12528253 -0.21440865 -0.21414264 0.23391062 0.033455722 -0.16244346 -0.26450607 0.023340518

conv2.bias f4 [12]
00000000: 867a ec3e 2c19 bd3e 08a4 053e 9154 d53c
00000010: 050a 26bd 3938 d1bd b921 4a3d b10a a23c
00000020: ed60 99be 3c10 65bd c005 0c3e b179 673e
0.46187228 0.36933267 0.13050854 0.026041301 -0.0405369 -0.10215802 0.049348567 0.019780489
-0.2995676 -0.055923685 0.13674068 0.22605015

conv3.weight f4 [24, 12, 3, 3]
00000000: e805 64be 7f0f 823c 9eea 513d c7dd a2be
00000010: 28d1 29bf 16c8 81be 7a19 0b3e b421 ec3d
00000020: d262 953e 9c4a e23e 5360 d1be d313 ce3d
00000030: 6c5b 6cbf 2281 afbe 61d1 af3d 3bd5 02bf
00000040: 80c6 d4be 470a 9c3d 2660 54bd 9b05 0cbe
00000050: 4140 713e f2bc 35be 108b c1be fe45 693d
00000060: b1a4 fd3d 81aa a13e 1cf9 2abe e292 243e
00000070: 4220 edbe e2c8 06bf 0b36 673e c992 1ebe
00000080: b20a 003f 04af 53be bf76 13bf 4319 b8bd
00000090: f20a 073d e9c3 27be b32d b63c f3b9 30be
000000a0: da50 433e 883c fcbd 217a bdbd 5f90 aabe
000000b0: 213d 8bbc cd35 1ebd b398 cbbd 9c55 f7bc
000000c0: 04d3 0e3e cc4c 313d b5d7 373d a77b 843e
000000d0: 3144 1bbd 1a41 83be be1b b23d 9685 91bd
000000e0: 749a f73d 60c9 65be cc24 2ebf 2be6 313f
000000f0: bc76 b03e a0b0 f93d da18 56be cc4b e6be
00000100: 94e2 8fbe 14a0 273e 04c6 333e 1518 8b3e
00000110: 6268 a93c 9a53 54be 522e b7be d274 dd3c
00000120: f4f6 863d e271 173d eea4 e1bd bbbb 49be
00000130: 1f82 9ebb df95 1abe 96ce fabd e6c8 673b
00000140: ba9b a5be 07c1 debd 2d6b 7a3e eb8a 32bd
00000150: 0572 f53e 0c54 90be 1430 2a3e 85d2 093f
00000160: 195b c73d 8c03 0ebf 55ec cabe 54cc 02be
00000170: 5fd4 f9be e0d1 26bf 02a6 bcbe 45e2 4abe
00000180: ad87 3f3d f92b 3c3e 8072 8c3d 2ff4 87bd
00000190: 842a 4a3d c069 b2be 5de6 d43e 3067 8abc
000001a0: fd63 bf3e bc33 70bd b070 2ebe 3d04 e2bc
000001b0: 49ce 703e 040e 16bd e7b2 c2be 310c 53bd
000001c0: 2787 fdbd 5976 75be 32fd 033c 6a18 efbe
000001d0: 8a76 b6be 52f2 59be b8d7 1a3e 3555 56bf
000001e0: 28e2 213e 3442 53bb f610 d1be 271b f2bd
000001f0: 8d82 febd 2ed4 54be 49bc 363e 597e 80bd
00000200: b7ff 143e 6556 953d ef61 96be 1318 34be
00000210: 7770 dc3e 012b 9dbe 9752 593e c9f6 f1be
00000220: 41d0 a6bd a630 d03d cbf9 87be 8e64 f93e
00000230: 3699 aebc 3239 6e3e e1c0 993e cfc2 163e
00000240: efae ef3b b257 90bc 6ddd 82be 9be9 713c
00000250: 8c2c a5be a585 e3bd bb8c 00be 6175 f5bc
00000260: c1de a2be 5ce5 6dbd 0ac6 c1be 401b 3abd
00000270: c8b8 e7be 882b cabd 22b1 4fbe c449 683b
00000280: 37a5 45bd 9534 41bd 1937 18bf 0ae7 f0be
00000290: 00e7 313c 8a01 98bd 2197 843e a376 dc3e
000002a0: ef09 63be 86ed f23d c7f4 f33d e93c 2b3e
000002b0: 41fb 98be 97f4 30bf 3c76 423e a819 d4be
000002c0: a926 afbd 8f58 4abc d5b9 a4be 88b2 283e
000002d0: dd29 58be a094 273e ace3 0ebe 49f8 253d
000002e0: 6670 36be 3878 40bd cc02 0d3f 6e34 ebbe
000002f0: dd5e e2be f281 b4be 7b00 13be 641c 5abe
00000300: cd1d 88bd a3f5 f23e 9bef ba3d 565d 5dbe
00000310: 9c30 1abd 68e8 10bf ecbc aabd 4688 16bf
00000320: 155e 26bf 3e3e e0bd 6a94 b2be 0e53 ecbe
00000330: 50d5 643c 6495 c2be a064 1cbf 7c4a ca3e
00000340: 455f 8f3e 4e6e 0b3e 709c 2d3e a885 aabe
00000350: af94 983e 4ec7 e13c 735b 733d 9bdc 4d3e
00000360: 041b 49bd d6bc 22be b226 373c a449 8abe
00000370: 52e2 2bbe 099c aebd 6415 cabd bdcf a1bc
00000380: b241 1a3e 331d 233c 3be3 a4bc aea6 e13c
00000390: a56e 043d 8067 44bd 5189 19be a34c d4be
000003a0: 1983 33be 9560 78be 4277 debd eda1 98bc
000003b0: 743c 15be 7ebc 86bd f565 84be a4bd 763d
000003c0: c4cf 263e 4752 07be e0e4 37be f93c 15bf
000003d0: e506 dfbe 1754 90be 370c 1ebf 635f 53bf
000003e0: 71b0 1a3e f629 33bf 6736 6c3f 76e3 1cbf
000003f0: fbf6 cfbd 52ea 803e 81e0 d73b 46ad dabc
-0.22267878 0.01587653 0.05124914 -0.31809828 -0.6633477 -0.25347966 0.13583937 0.11529866
0.29176956 0.44197547 -0.40893802 0.10062375 -0.92327 -0.34278208 0.08584858 -0.51106614
-0.41557693 0.07619148 -0.051849507 -0.13674013 0.23559667 -0.17747858 -0.3780141 0.056951515
0.12384928 0.31575397 -0.1669659 0.16071656 -0.46313673 -0.5265027 0.2257921 -0.15485682
0.5001632 -0.20672232 -0.5760307 -0.08989193 0.032969423 -0.16383328 0.022238588 -0.17258434
0.19073811 -0.12316233 -0.0925181 -0.3331327 -0.016996922 -0.038625527 -0.099412344 -0.030192189
0.13947684 0.04328613 0.04488345 0.2587559 -0.03790683 -0.25635606 0.08696698 -0.071055576
0.120900065 -0.224401 -0.680249 0.69491833 0.34465587 0.12191892 -0.20907918 -0.44979703
-0.28102553 0.16369659 0.17556006 0.2716681 0.020679656 -0.20735016 -0.35777527 0.027033243
0.06590071 0.03697384 -0.11017786 -0.1970052 -0.004837289 -0.15096234 -0.122464344 0.0035367548
-0.32345372 -0.10876661 0.24454947 -0.043589514 0.47938552 -0.28189123 0.16619903 0.5383685
0.097341724 -0.5547416 -0.39633432 -0.12773257 -0.4879484 -0.65163994 -0.36845404 -0.19812877
0.04676025 0.18376149 0.06857777 -0.06638371 0.049356952 -0.34846306 0.41582003 -0.016894907
0.37380973 -0.058643088 -0.17035174 -0.027589912 0.23516192 -0.03663446 -0.38027117 -0.0515253
-0.12379294 -0.23970927 0.008055972 -0.46698314 -0.35637313 -0.21283844 0.15121353 -0.83723766
0.15808928 -0.0032235505 -0.40833253 -0.11821585 -0.12427244 -0.20784065 0.17845263 -0.06274099
0.14550672 0.07291869 -0.29371592 -0.17587309 0.43054554 -0.30696872 0.21222912 -0.47258595
-0.0814519 0.10165529 -0.26557764 0.4870953 -0.021313291 0.23264006 0.30029967 0.14722751
0.007314555 -0.017619941 -0.2555956 0.014765169 -0.3226055 -0.11109475 -0.12553684 -0.029963197
-0.31810573 -0.058080062 -0.37846404 -0.045436144 -0.45258164 -0.09871584 -0.20282415 0.0035444358
-0.048253264 -0.047169287 -0.5945907 -0.4705127 0.010858297 -0.074221686 0.25896552 0.43059263
-0.22171758 0.1186171 0.11911922 0.16722454 -0.29879192 -0.69123214 0.18990415 -0.41425824
-0.08552296 -0.012350216 -0.3217303 0.16474354 -0.2110972 0.1636529 -0.13954037 0.040519986
-0.17816314 -0.04698965 0.5508239 -0.45938438 -0.44213 -0.3525539 -0.14355652 -0.21299893
-0.06646309 0.4745303 0.09127732 -0.21617636 -0.037644014 -0.56604624 -0.08336815 -0.58801687
-0.6498731 -0.10949372 -0.34878856 -0.46157116 0.013966873 -0.380046 -0.6109104 0.39509952
0.28002372 0.13616297 0.16954207 -0.33305097 0.29800937 0.027560856 0.059413385 0.20103686
-0.04909803 -0.15892348 0.011178659 -0.27009308 -0.16785553 -0.08525855 -0.09867361 -0.019752378
0.15064123 0.009955692 -0.020127883 0.0275453 0.03233208 -0.047950268 -0.14993788 -0.4146472
-0.17530479 -0.24255593 -0.108625904 -0.0186319 -0.14573842 -0.06578921 -0.25859037 0.06023945
0.16290194 -0.1321498 -0.17958403 -0.5829616 -0.43559948 -0.28189155 -0.6173739 -0.82567424
0.1510637 -0.699859 0.9227051 -0.6128458 -0.1015453 0.25178772 0.0065880422 -0.026693951

conv3.bias f4 [24]
00000000: 5e9e 8e3e 9381 43bd e7cb 65bd 32af 42bf
00000010: f7ae 2d3e 253f 0fbe 82d4 2dbe 6d9e d53e
00000020: 636f 36bf 590c 013c 590c 1abf 9534 6abd
00000030: 7987 68bb adaf a13e e839 c6be 65d0 16bd
00000040: eb5b 013f 8da5 1fbf ac4a 5ebe 9cd3 38bd
00000050: c309 dcbd 7b36 01bc dca4 ce3e 0770 dcbe
0.278552 -0.047730993 -0.05610266 -0.76048577 0.16961275 -0.13988931 -0.16975597 0.41722432
-0.7126371 0.007876479 -0.6017509 -0.057179052 -0.0035481139 0.31579342 -0.38716054 -0.036819834
0.5053088 -0.62361985 -0.21708173 -0.04512368 -0.107440494 -0.007886524 0.40360153 -0.4305422

fc.weight f4 [128, 1536]
00000000: 81df 14bd 9900 96bd c618 44bd 4bc8 3dbd
00000010: a7d9 6cbd 4be6 6fbd 3bbd 55bd 4a22 5ebd
00000020: b9ee 363d 9999 38bd 81d3 023d 38b0 8e3d
00000030: 7c45 a4bd d576 293d f216 42bd 1f3f 533d
00000040: 7bab 6ebd dd7b acbd 6d52 59bd 4a78 963d
00000050: 19dc 15bd 04bd 53bd 7727 40bd 9821 a3bd
00000060: 5849 9dbd 6199 93bd 3673 acbd 55a4 74bd
00000070: ecc0 98bd 806a 72bd b51f 9dbd c48d 7bbd
00000080: 83ed 603d 19cf 74bd ec75 58bd 8d04 a1bd
00000090: 1d8f 30bd b475 87bd bc25 a7bd 2fe2 78bd
000000a0: 0ead 5abd ab4f a9bd 15fd 6c3d c212 abbd
000000b0: e9c0 1bbd 15a3 80bd 8753 97bd 0021 79bd
000000c0: 8508 a6bd 9ce2 58bd 5997 e93c 9ce6 26bd
000000d0: 33e4 a7bd 477c 14bd cade 2cbd d533 82bd
000000e0: 4a55 80bd ba41 853d 4f1d abbd f05c a2bd
000000f0: 5bf8 63bd 44d2 a1bd e281 83bd fccf 973d
00000100: 8b1e 9ebd f33b 2bbd d6f1 99bd 39a3 90bd
00000110: b8d9 adbd e06e 68bd 82c2 93bd 00dc 34bd
00000120: a295 1bbd 60b4 acbd 764d 41bd 0fda 6dbd
00000130: eb23 86bd c8e4 22bd c183 8cbd 8173 923d
00000140: d647 7b3d 66f5 86bd c9c7 123d 7374 2e3d
00000150: bd3a 9a3d 2b0b 403d 0fc7 1a3d 19ac a9bd
00000160: c72f 58bd cd1a 75bd f53a 903d 3e49 8dbd
00000170: a016 9d3d ece5 283d dd20 98bd dfb9 173d
00000180: 5243 aebd 9a36 67bd 047b ab3d babb 0abd
00000190: 59fd 8cbc ea20 283d 21c4 683d 6dc1 8a3d
000001a0: a5e6 4abd 61d7 983d 423a 4abd 1522 44bd
000001b0: 1ea3 3ebd 569a 8d3d 9ffe a23d eb79 a13d
000001c0: 7305 80bd ac56 8fbd 56d7 77bd 737f 73bd
000001d0: 008e 98bd c8e1 69bd d54a 72bd c530 a63d
000001e0: 1198 21bd 5ef7 92bd ccb4 433d 5424 8dbd
000001f0: a250 64bd ae24 97bd 1b9f 43bd ae19 ae3d
00000200: f73f 6cbd 0691 45bd 1b6b 3dbd 3d50 3c3d
00000210: fb4e 89bd 6a1b 75bd 0f43 69bd 24fb a8bd
00000220: 0ee8 3abd 8641 80bd 2440 11bd 0c1f 8f3d
00000230: cac3 1c3d 883e a9bd 80a4 9ebd b43f 40bd
00000240: 460d 57bd e78e a3bd bd08 12bd 6ef1 993d
00000250: 8398 86bd da04 3bbd f06f a4bd 30ad a2bd
00000260: 61c7 76bd 73b6 7dbd 2f50 1e3d bd7c a3bd
00000270: c330 90bd abce 3dbd 871f 2dbd 7133 a7bd
00000280: ca6c 31bd 4164 92bd 09e8 0f3d 9c7d 91bd
00000290: 5bd6 8ebd 91c4 10bd a08c 6abd 405d a7bd
000002a0: 0bb9 80bd 8f79 183d d985 23bd 0d51 abbd
000002b0: aa22 40bd be0b a2bd bd9d a6bd 99ff 94bd
000002c0: 391d a4bd ac80 adbd 192d a3bd 191e 23bd
000002d0: 963d 20bd 9517 22bd 1863 3abd 45cd 99bd
000002e0: 0d38 99bd e805 86bd 6cbf a6bd d459 3fbd
000002f0: 57e1 9abd 9501 a0bd 0812 4fbd 8025 78bd
00000300: 8b37 a5bd 47d7 1ebd 5f5e 2abd 6017 81bd
00000310: 981c 42bd 274e 75bd 1790 a8bd e365 74bd
00000320: c356 45bd 3289 393d 3cb5 413d eed5 7e3d
00000330: 87da 853d 7aa7 2fbd b8ca 9bbd 8429 46bd
00000340: 86a5 403d c5ab 5f3d 1abb 84bd 1815 4b3d
00000350: c9ed 3c3d b506 15bd 9b8f 8dbd a954 64bd
00000360: 633c 5abd ea3b 843d 5909 4bbd 07a8 11bd
00000370: 8b27 9bbd 562b 4bbd 635b 9bbd ff08 4cbd
00000380: 02ac 12bd 796b 2cbd 04d8 9ebd efd6 91bd
00000390: 99a2 98bd 7b40 21bd 4606 afbd a116 1abd
000003a0: 1733 2b3d 26d0 373d 3439 92bd 29ee 343d
000003b0: fecb 25bd 9bb1 26bd 6a61 8ebd 29b2 0ebd
000003c0: 4183 9abd f2d6 3ebd cdc1 22bd 6621 9dbd
000003d0: 3b25 a5bd 9818 23bd 8bae a7bd 58ff 85bd
000003e0: cf54 1dbd 3020 a6bd bb64 15bd 79d9 12bd
000003f0: 4032 3fbd b7f9 0dbd ac82 0c3d 445b 8abd
-0.036345962 -0.07324333 -0.04787519 -0.046333592 -0.057824757 -0.058569234 -0.052182417 -0.05423192
0.044661257 -0.045068357 0.031939987 0.06967205 -0.080210656 0.041373093 -0.047385164 0.05157387
-0.058269005 -0.084220625 -0.053057123 0.07347162 -0.036586855 -0.05169393 -0.046912637 -0.07965392
-0.07680005 -0.07206989 -0.08420412 -0.05972703 -0.07458672 -0.059183598 -0.07672063 -0.061414495
0.05491401 -0.059767816 -0.052846834 -0.07862196 -0.043105233 -0.06614247 -0.08161494 -0.06076258
-0.053387694 -0.082671486 0.057858545 -0.08353187 -0.03802577 -0.062811054 -0.073889785 -0.060822487
-0.08107094 -0.052950487 0.028514551 -0.04074727 -0.081978224 -0.036251333 -0.042204656 -0.063575424
-0.062662676 0.06506677 -0.083551995 -0.07927883 -0.055656772 -0.07901433 -0.064212576 0.07412717
-0.07720669 -0.04180522 -0.0751683 -0.07062382 -0.08488792 -0.056746364 -0.07214834 -0.04415512
-0.037984498 -0.08432841 -0.047193013 -0.058069285 -0.065498196 -0.039768964 -0.068610676 0.07150937
0.061347805 -0.06589775 0.03583506 0.042591523 0.07530735 0.04688565 0.037787493 -0.08284778
-0.05277994 -0.059840012 0.07042495 -0.068987355 0.07670331 0.041234896 -0.07428143 0.037042495
-0.08508934 -0.056448556 0.08373073 -0.033870436 -0.01721065 0.041047014 0.056827668 0.06775174
-0.049536366 0.07462955 -0.049371965 -0.047884066 -0.04654228 0.06914203 0.07958721 0.07884582
-0.06251039 -0.06998953 -0.060508095 -0.059447717 -0.07448959 -0.057100087 -0.059153397 0.08114771
-0.039451662 -0.07176088 0.047779843 -0.06891695 -0.05574096 -0.07380043 -0.047759157 0.08500992
-0.05767819 -0.04823401 -0.04624472 0.04597496 -0.067045175 -0.059840597 -0.056948718 -0.08251026
-0.04563146 -0.062624976 -0.03546156 0.069883436 0.038272657 -0.0826388 -0.0774622 -0.046935752
-0.052502893 -0.07986241 -0.035652865 0.07516752 -0.06572058 -0.045658924 -0.08029163 -0.07943189
-0.060248736 -0.061941575 0.038650688 -0.07982776 -0.070405506 -0.046339672 -0.042266395 -0.081641085
-0.04331664 -0.07148028 0.035133395 -0.07104036 -0.06974479 -0.03534371 -0.057263017 -0.08172083
-0.06285294 0.037225302 -0.03992257 -0.083650686 -0.04690806 -0.07912396 -0.08135555 -0.07275314
-0.08013386 -0.08471808 -0.07967586 -0.039823625 -0.039121233 -0.03957327 -0.04550466 -0.07509855
-0.07481394 -0.06544095 -0.081419796 -0.046716526 -0.075625114 -0.07812802 -0.050554305 -0.060582638
-0.080672346 -0.038779523 -0.041593906 -0.063032866 -0.04739055 -0.059888985 -0.08230608 -0.05966748
-0.048178446 0.045296855 0.04729198 0.062215738 0.065358214 -0.042884327 -0.07607025 -0.048379436
0.047032855 0.05460717 -0.06480999 0.049580663 0.046125207 -0.03638335 -0.06912156 -0.0557448
-0.053280246 0.0645674 -0.04956946 -0.035560634 -0.075759016 -0.049601875 -0.0758579 -0.049813267
-0.03580857 -0.04209468 -0.077560455 -0.071210735 -0.07452888 -0.039368134 -0.085461184 -0.037619237
0.04179677 0.04487624 -0.07139817 0.04417244 -0.040477745 -0.04069672 -0.06952174 -0.034837876
-0.07544566 -0.046591707 -0.039735604 -0.07672386 -0.08063742 -0.039818376 -0.08187588 -0.065428436
-0.038410958 -0.08111608 -0.036473017 -0.03585193 -0.04667878 -0.034661975 0.034304306 -0.06755689

fc.bias f4 [128]
00000000: 20b0 a8bd 399e 29bd c196 e2bc 1115 32bd
00000010: f69e a1bd af77 8fbd 8317 d03d 33d6 20be
00000020: 9df3 6ebd 920c 1dbe 0082 833e 6b7e aebd
00000030: 1da6 87be 8f30 a93d e941 283f 20bd a93c
00000040: 7d9b 16be bf64 7dbd 1643 eb3e e9fa 463e
00000050: 771a 68bd 61f1 4dbd a4ce abbd a1d2 ca3e
00000060: 4b57 17be 8273 07be 1e5c 6c3e 6526 a8be
00000070: 750c 293e 956c 54bd 6738 9dbd 152b acbd
00000080: d804 603e 01c7 27bd 64bf f63e e55f 84bd
00000090: 32a9 96bd a2a1 8a3e 18c8 96be 1349 3ebe
000000a0: 81d1 5bbd 8fd2 86bd 037e 6cbc 2ac1 abbd
000000b0: 5e7d 80bd 6218 22be eb76 96bd dfac 29be
000000c0: e7fb 23bd cc8c 67bd 8e8e 66be c2d2 593e
000000d0: 151e 673e 3267 9bbd 9dea 90be a4ba a0bd
000000e0: 46fe 59bc 1120 24bd 295f 33bd 3fd6 89bd
000000f0: d130 863d cbc1 3bbe 5efb 21be 66e4 44bd
00000100: c73b 37bd 6caa 27bd 0d40 3bbe bd9f 38bd
00000110: 393e 15bf ad28 a0bd 5f8f b4be 900c a0bd
00000120: c6af 44be b293 e93c 1f0d cfbe 1520 aebd
00000130: 2463 6cbd ad3d 4e3d db1f 86be 456a a23e
00000140: 8df7 10bd bfc3 10be d74e 2fbd 597e e33d
00000150: 7555 9fbd 86af 89bd 1f27 80bd faea 8fbd
00000160: 85ed 7cbd 0d6b 53bd 4350 e6be 1b69 84be
00000170: 26df 8dbd 0869 2ebd 860d 603e 021e 95bd
00000180: 9725 ba3e ec8a c1bd cfbf 7ebd ba86 22bd
00000190: 4c61 c9bc 20d5 d13d aa9b 32bd 09c1 a93e
000001a0: 9a48 a5bd 01ee ba3e ab7e 85bd 59b0 43be
000001b0: 3fa6 4fbe e6bb 9ebe c248 6fbd 7884 a43e
000001c0: 75b1 90bd 4231 713e 4c15 96bd 24ba 93be
000001d0: e5ed c1be 6273 91bd 3208 953e 3d60 7d3e
000001e0: ed8d ed3d 57b7 2dbd 41e7 f4bd fbe1 9c3e
000001f0: 4780 00be f0a0 66bd 9980 a2be dc38 03bd
-0.08236718 -0.04141066 -0.027659776 -0.04347712 -0.078916475 -0.0700525 0.101607345 -0.1570671
-0.058337796 -0.15336826 0.2568512 -0.08520206 -0.26493922 0.08261215 0.6572557 0.020720065
-0.14707752 -0.061863657 0.4594962 0.19431652 -0.056665864 -0.050279025 -0.08389023 0.39613822
-0.14779393 -0.13227656 0.23082015 -0.32841793 0.16508658 -0.051861364 -0.076767735 -0.08406655
0.21876848 -0.04096127 0.48192894 -0.06463603 -0.0735649 0.2707644 -0.29449534 -0.18582563
-0.053666595 -0.065831296 -0.01443434 -0.083864525 -0.06273912 -0.15829614 -0.073469006 -0.16569851
-0.040035155 -0.05653076 -0.22515318 0.21271804 0.22570069 -0.07588042 -0.28303996 -0.07848099
-0.013305252 -0.040069643 -0.043791924 -0.06730317 0.0655228 -0.18335645 -0.15818545 -0.04806938
-0.044734742 -0.04093401 -0.18286152 -0.045074213 -0.5829807 -0.07820258 -0.35265633 -0.07814896
-0.19207677 0.02851281 -0.40439698 -0.08502213 -0.057711735 0.050351787 -0.2619618 0.31721702
-0.035392333 -0.14137171 -0.042799797 0.11108083 -0.077799715 -0.067229316 -0.06257462 -0.0702724
-0.061749954 -0.051615763 -0.4498311 -0.2586144 -0.06927328 -0.042580634 0.21880159 -0.07281114
0.36356804 -0.09450325 -0.06219464 -0.039679267 -0.024582528 0.102457285 -0.043605484 0.33155087
-0.08070488 0.36509708 -0.065183006 -0.1911024 -0.20278262 -0.3100273 -0.058418997 0.32132316
-0.07065097 0.23553947 -0.07328281 -0.28852952 -0.37876812 -0.07102086 0.29107815 0.24743743
0.11599336 -0.042411175 -0.11958171 0.3064116 -0.12548934 -0.056305826 -0.31738737 -0.032036647

cls.weight f4 [16, 128]
00000000: 092a 95bc db69 393e 5121 57be 2bbe 083e
00000010: ba1a b8bc d979 d2bc 42bc 063e f174 c5be
00000020: f7e0 e33b dbf2 833e e895 563d cee1 b53c
00000030: ac3c 92be 6b72 853d f998 193e dc0d 143c
00000040: 5c81 bebd 4f3d c0be 54d4 be3e 9be9 81bd
00000050: 6000 26bc 8f76 363c 2b7b 153e c4aa 093d
00000060: ad99 a4be 6363 9bbd f034 adbe 4c7f b73e
00000070: b20c d93e 25ba d13d 691d f73c 2b4f d73c
00000080: 316e 91bd 1176 fe3d 8db4 be3e cafd bf3b
00000090: aa0b e4bb 560e 74be aa50 d93e 59f2 9b3e
000000a0: 958e f6bb 2999 653d ca2b 44be 423a 103e
000000b0: 1fa2 333e b62a 72be 59a4 56bc d9fc acbd
000000c0: f21b 2a3c 21e4 903d 192f 7b3d 2a26 6b3d
000000d0: 439e 87be e74f a73d 0179 21bd 7f07 893d
000000e0: bf17 debd fee7 b9bb f173 4f3d 5714 73bd
000000f0: 23bd 283e 7edf 42bd 160d 2ebe 2a01 d83a
00000100: 361b 33bb 8d93 8c3d 686a ad3c 2d2d 78bd
00000110: 513b cfbe 7cce 943d 3901 f8be 5b29 b2bd
00000120: 4e34 ccbc d5de 663e 111c 63be 2b2f f2bd
00000130: ceee 94bd 2a5e c43d fb3b 79bf 7a43 143d
00000140: c07b 263d a415 553e e727 163e 0b85 9dbd
00000150: 5ebe 0a3d 1fc2 b73c f28d eabd 4af3 163e
00000160: 1b4b 1e3d 7319 a53d 68ef 013e bebe 6bbe
00000170: 4915 383d 50ea 17bf f1b5 793e 7ffd 83bd
00000180: ec1d ee3d db78 c53d db04 ce3d fc9f f73d
00000190: a776 33bf fa6b 043e 432b 2c3d 909e 663e
000001a0: af34 58bc b5b5 b13e 376c a1bc e5c8 50be
000001b0: 63f6 92bd ee45 82be 2b4c 783d ad5a 12be
000001c0: c8c5 0a3e 6f6a 69be bdd3 183d 7fa2 e7be
000001d0: 87ec 45be 184d 823c 7e31 923e 7073 fb3e
000001e0: 8964 44bc 186e 87bd 9be1 f1be 44e1 8ebc
000001f0: b0ef 023d 462f eb3b 9d7d 98bd 2cc8 9b3e
00000200: e8f6 e03c 5628 7dbd 2c0f 77be 3600 eb3d
00000210: 7735 783d 7a27 fb3d aa0b be3d 7d53 903e
00000220: 480f 2b3c 9821 c33e ea0e 08bf 4370 023e
00000230: 12e9 07be 90a1 58be 5b05 12be 91b1 89bd
00000240: 13cd f83d 37f8 943e 71b8 e03d 3a84 f73d
00000250: ed16 e5bc b28e 9fbc bbee 8d3d 1894 873e
00000260: f094 8d3e b058 893d 5615 9f3e 99b6 97be
00000270: c280 23bf 56f8 cc3d 8d07 043d 2a70 163e
00000280: ab88 b7be 14ed e13d 98ad febe 714b 08be
00000290: 48ec 103e f021 14be 4b3c 1bbe fcc9 77be
000002a0: 3ff9 11be 80a5 8ebc f81e 333f a7fc 903d
000002b0: ddb5 dcbe 70a1 973e 436e 873d 45cc 923d
000002c0: b5bd 2b3b 51ec 00be 0f15 0b3e b1a3 403e
000002d0: eecf b23d a663 e3bd 07ad 68be 9ffb 833d
000002e0: 485a 69be 664a 853d 4d06 59bd e143 1bbe
000002f0: 2547 fcbe e9ea f13e 35d2 ca3e fe6d 84bc
00000300: 1a75 3d3a 1876 003e fbc1 433e 34c9 173e
00000310: 23cf bcbe 5e76 29ba 3ee1 003e 30a5 3dbd
00000320: b392 c43d 33c8 40bd bf12 50bd ecd3 a3bb
00000330: c8ed c23d 7c41 ef3d 724e 213e d89a b23b
00000340: 2294 13be 613c a23d b1cd e33c 36fd 94bc
00000350: 041c d33d ca88 533d 028e 91bf 90c3 e73d
00000360: c45a d23d 8846 d63d 28c2 d53d ace1 323d
00000370: f031 b0bd 5d80 aabe 732f 8abe 75c8 8ebd
00000380: 0e03 c1be f8a6 70be 04ff 7c3c 94ff a8bd
00000390: 90e0 f8be 1a45 40be 474e b2bd cf33 00bf
000003a0: 1548 593d 5975 d3be d450 823d 1d45 d63e
000003b0: a412 e1bc 87c3 a43e 01a4 9e3d babb 8a3e
000003c0: 56be 5dbd 8ade d83e 596d 603c 526c 69bd
000003d0: 67f3 a53e 36ac d53d cf0e 233c ca12 433e
000003e0: 9455 c63d 7cb6 cbbb 2014 fc3d bda0 95bd
000003f0: 1592 79bd 33d7 583c 84c8 be3e b902 2dbe
-0.01820852 0.18106787 -0.21008803 0.13353793 -0.022473682 -0.025692867 0.13157752 -0.38565782
0.006954308 0.25771222 0.052389055 0.022202399 -0.28561914 0.06515964 0.1499976 0.009036507
-0.09302017 -0.37546775 0.37271369 -0.06343385 -0.010131925 0.011136665 0.14597766 0.03361012
-0.32148495 -0.07587316 -0.3382945 0.35839307 0.42392498 0.102405824 0.030165391 0.026282867
-0.071010955 0.12424863 0.37247124 0.0058591114 -0.0069593983 -0.23833594 0.42444354 0.30458334
-0.0075243213 0.056054268 -0.19157329 0.14084724 0.17542313 -0.23649105 -0.013100707 -0.08446664
0.010382639 0.07074762 0.061324213 0.057409443 -0.26487932 0.08169537 -0.03942204 0.06690883
-0.10844373 -0.0056734076 0.05064768 -0.05934557 0.164784 -0.04757642 -0.1699718 0.0016479839
-0.0027329451 0.068640806 0.021168903 -0.060589958 -0.40474942 0.07265946 -0.48438433 -0.08699294
-0.024927285 0.22545941 -0.22178675 -0.11825403 -0.07272111 0.09588273 -0.9735715 0.036197163
0.04064536 0.20809036 0.14663659 -0.076913916 0.033872955 0.022431431 -0.11452855 0.14741245
0.038645845 0.08061495 0.12688982 -0.23021981 0.044942174 -0.5934191 0.24385811 -0.06444835
0.11626801 0.09642192 0.1005952 0.120910615 -0.70102924 0.12931815 0.042033445 0.22521424
-0.0131961545 0.34708944 -0.019704921 -0.20389135 -0.07175901 -0.25443977 0.060619514 -0.14292403
0.1355201 -0.22794507 0.037311304 -0.45241162 -0.1932851 0.015905902 0.28553385 0.4911151
-0.01198686 -0.066127956 -0.47242436 -0.0174414 0.031966865 0.0071772663 -0.07445834 0.30426157
0.027461484 -0.061806045 -0.24126881 0.114746496 0.060597863 0.12263389 0.092795685 0.28188697
0.010440655 0.38111567 -0.5314776 0.12738137 -0.13272503 -0.21155381 -0.14259855 -0.06723321
0.1214849 0.29095623 0.109726794 0.12085767 -0.027965033 -0.019477222 0.069303 0.26480174
0.27652693 0.06706369 0.31070966 -0.29631498 -0.63868344 0.10008304 0.032233763 0.14691225
-0.35846457 0.11031547 -0.49741817 -0.13310029 0.14152634 -0.14466071 -0.15159719 -0.24198145
-0.14255236 -0.0174129 0.6996913 0.070794396 -0.431075 0.29615355 0.06612828 0.071678676
0.0026205603 -0.12590148 0.13582252 0.18812443 0.08731066 -0.11102991 -0.22722255 0.06444477
-0.22788346 0.06508331 -0.052984525 -0.15162612 -0.4927303 0.47249535 0.396135 -0.01616573
0.00072272273 0.12545049 0.19116966 0.14822847 -0.36876783 -0.00064644765 0.12585923 -0.046300113
0.09598293 -0.047065925 -0.050799128 -0.0049996283 0.095180094 0.11682412 0.15752581 0.0054505877
-0.14411977 0.079216726 0.027808042 -0.018187147 0.10308078 0.051644124 -1.1371462 0.113165975
0.102712184 0.104626715 0.10437423 0.04367225 -0.08603275 -0.33301058 -0.26989326 -0.06971828
-0.37697643 -0.23501194 0.01544166 -0.08251873 -0.48608828 -0.1877636 -0.087063365 -0.50079054
0.05304726 -0.41300467 0.06363073 0.41849604 -0.027474709 0.32180426 0.07746125 0.2709635
-0.054136597 0.42357284 0.0136979455 -0.056988068 0.32412264 0.10433237 0.009952261 0.19050136
0.096842915 -0.006216822 0.12308526 -0.07306049 -0.06093033 0.013234901 0.37262356 -0.1689557

cls.bias f4 [16]
00000000: 8864 ba3e 267c 9fbe 418d 1bbe 0e13 393e
00000010: e542 633e 5257 0f3d f5a2 8b3e 9a73 3d3e
00000020: c966 42bf f829 edbd ef77 0bbe 6918 6ebe
00000030: afbe 1cbe 8c69 c2bd 0c61 41be 9327 a4bd
0.36404824 -0.31149405 -0.15190603 0.18073675 0.22193487 0.034995385 0.27272764 0.1850113
-0.7593809 -0.115802705 -0.1361997 -0.23251499 -0.15307115 -0.09492788 -0.18884677 -0.08015361
